…
gpu 0 tasks: [0, 1, 2, 3, 4, 5, 6, 7, 8, 9, 10, 11, 12, 13, 14, 15, 16, 17, 18, 19, 20, 21, 22, 23, 24, 25, 26, 27, 28, 29, 30, 31]
----quantization done ...---- 2025-02-10 13:48:11
Loading checkpoint shards:   0%|          | 0/4 [00:00<?, ?it/s]Loading checkpoint shards:  25%|██▌       | 1/4 [00:00<00:00,  4.00it/s]Loading checkpoint shards:  50%|█████     | 2/4 [00:00<00:00,  5.60it/s]Loading checkpoint shards:  75%|███████▌  | 3/4 [00:00<00:00,  6.51it/s]Loading checkpoint shards: 100%|██████████| 4/4 [00:00<00:00,  7.25it/s]Loading checkpoint shards: 100%|██████████| 4/4 [00:00<00:00,  6.49it/s]
qmodel: LlamaForCausalLM(
  (model): LlamaModel(
    (embed_tokens): Embedding(128256, 4096)
    (layers): ModuleList(
      (0-31): 32 x LlamaDecoderLayer(
        (self_attn): LlamaAttention(
          (q_proj): Linear(in_features=4096, out_features=4096, bias=False)
          (k_proj): Linear(in_features=4096, out_features=1024, bias=False)
          (v_proj): Linear(in_features=4096, out_features=1024, bias=False)
          (o_proj): Linear(in_features=4096, out_features=4096, bias=False)
          (rotary_emb): LlamaRotaryEmbedding()
        )
        (mlp): LlamaMLP(
          (gate_proj): Linear(in_features=4096, out_features=14336, bias=False)
          (up_proj): Linear(in_features=4096, out_features=14336, bias=False)
          (down_proj): Linear(in_features=14336, out_features=4096, bias=False)
          (act_fn): SiLU()
        )
        (input_layernorm): LlamaRMSNorm((4096,), eps=1e-05)
        (post_attention_layernorm): LlamaRMSNorm((4096,), eps=1e-05)
      )
    )
    (norm): LlamaRMSNorm((4096,), eps=1e-05)
    (rotary_emb): LlamaRotaryEmbedding()
  )
  (lm_head): Linear(in_features=4096, out_features=128256, bias=False)
)
--------------starting  no finetune testing---------------
----Evaluating llama ...---- 2025-02-10 13:48:22
  0%|          | 0/32 [00:00<?, ?it/s]  3%|▎         | 1/32 [00:01<00:44,  1.44s/it]  6%|▋         | 2/32 [00:03<00:45,  1.53s/it]  9%|▉         | 3/32 [00:04<00:42,  1.46s/it] 12%|█▎        | 4/32 [00:06<00:42,  1.53s/it] 16%|█▌    
…
../aten/src/ATen/native/cuda/Indexing.cu:1289: indexSelectLargeIndex: block: [69,0,0], thread: [60,0,0] Assertion `srcIndex < srcSelectDimSize` failed.
../aten/src/ATen/native/cuda/Indexing.cu:1289: indexSelectLargeIndex: block: [69,0,0], thread: [61,0,0] Assertion `srcIndex < srcSelectDimSize` failed.
../aten/src/ATen/native/cuda/Indexing.cu:1289: indexSelectLargeIndex: block: [69,0,0], thread: [62,0,0] Assertion `srcIndex < srcSelectDimSize` failed.
../aten/src/ATen/native/cuda/Indexing.cu:1289: indexSelectLargeIndex: block: [69,0,0], thread: [63,0,0] Assertion `srcIndex < srcSelectDimSize` failed.
qmodel: LlamaForCausalLM(
  (model): LlamaModel(
    (embed_tokens): Embedding(32000, 4096)
    (layers): ModuleList(
      (0-31): 32 x LlamaDecoderLayer(
        (self_attn): LlamaAttention(
          (q_proj): Linear(in_features=4096, out_features=4096, bias=False)
          (k_proj): Linear(in_features=4096, out_features=4096, bias=False)
          (v_proj): Linear(in_features=4096, out_features=4096, bias=False)
          (o_proj): Linear(in_features=4096, out_features=4096, bias=False)
          (rotary_emb): LlamaRotaryEmbedding()
        )
        (mlp): LlamaMLP(
          (gate_proj): Linear(in_features=4096, out_features=11008, bias=False)
          (up_proj): Linear(in_features=4096, out_features=11008, bias=False)
          (down_proj): Linear(in_features=11008, out_features=4096, bias=False)
          (act_fn): SiLU()
        )
        (input_layernorm): LlamaRMSNorm((4096,), eps=1e-05)
        (post_attention_layernorm): LlamaRMSNorm((4096,), eps=1e-05)
      )
    )
    (norm): LlamaRMSNorm((4096,), eps=1e-05)
    (rotary_emb): LlamaRotaryEmbedding()
  )
  (lm_head): Linear(in_features=4096, out_features=32000, bias=False)
)
--------------starting  no finetune testing---------------
----Evaluating llama ...---- 2025-02-11 14:09:15
Traceback (most recent call last):
  File "/data01/home/xuzk/workspace/VPTQ/run_rpvq.py", line 190, in <module>
    ppl = eval_llama(model, testloader, "cuda")
  File "/data01/home/xuzk/anaconda3/envs/vptq/lib/python3.10/site-packages/torch/utils/_contextlib.py", line 115, in decorate_context
…
